Model/sine_model.tflite (tflite, 3192 bytes, 5 tensors)

sequential_1/dense_3/BiasAdd/ReadVariableOp f4 [16]
00000000: 85db b43e c633 e43d 87bc eebe 283f 2ebe
00000010: 0b0b 2b3e fa88 5bbe 28b3 dd3e 19a8 613f
00000020: e127 d23d e7e9 033e 0bf9 e3be 5632 363d
00000030: d859 eb3d afbf edbe 6ee3 083e 0000 0000
0.3532373 0.111426875 -0.4662821 -0.1701628 0.16703431 -0.21438971 0.43300748 0.8814712
0.102615125 0.12882195 -0.44525942 0.044481598 0.11491746 -0.46435305 0.13368008 0.0

sequential_1/dense_2/BiasAdd/ReadVariableOp f4 [16]
00000000: 41c6 bb3a 8540 2abc 0000 0000 0000 0000
00000010: 683b 1fbf de00 15bf 91d4 9b3f 0000 0000
00000020: 3938 00bf c48f 51be 0000 0000 0000 0000
00000030: 0000 0000 c364 bdbe cc0d 4439 afea b7be
0.0014326052 -0.010391359 0.0 0.0 -0.6220002 -0.5820445 1.2174245 0.0
-0.5008579 -0.20464998 0.0 0.0 0.0 -0.36990938 0.00018697156 -0.35921237

sequential_1/dense_2/MatMul f4 [16, 1]
00000000: adc1 e23e 86d9 673e 0ced ffbd ee16 adbe
00000010: 2394 f03e 303c 473e 029d 893d 80d6 70bd
00000020: c851 633e 0868 873e f0c5 efbe b493 d7bd
00000030: ae22 e8be 871d 0f3e 2072 b43d 6aac 243e
0.44288388 0.22641572 -0.12496385 -0.33806556 0.4698802 0.19456553 0.067194 -0.058798313
0.22199166 0.26446557 -0.46830702 -0.10526219 -0.45338959 0.13976108 0.0881083 0.16081396

sequential_1/dense_3/MatMul f4 [16, 16]
00000000: f453 033d 37de 54bd 5841 30bd 3c83 d5be
00000010: b4d1 7bbb aa0c 393e d282 243e 072b ca3e
00000020: e74f 023d 0b2f cb3e 1705 9e3e a836 bebd
00000030: 38c8 1abd b36d c7be 5c14 d9be 9939 dfbe
00000040: 0b9b 9abe f749 b73e d1d2 be3e 115d 983e
00000050: dad3 53bc d57f 80be ebc6 273e ed2d c83e
00000060: 4890 513e 8305 a33e 18f5 78bd 7648 343e
00000070: fcbb 8a3d 9773 7cbe 34bd d33e 87f6 be3d
00000080: 18d9 4c3e 07f2 37bd 26bd 26be c1f7 d83e
00000090: 4365 a63e 221a ee3e f4fa f8be 2c33 2dbe
000000a0: f08e 82bc 5f20 ba3e 2879 9dbe 34fa 92bd
000000b0: 2564 ab3e 030e 773e dd8e 40be 3c67 7e3c
000000c0: 5af0 0b3e 805c 3a3e 806c 01bb 3f5b a6be
000000d0: 7a40 4bbf 8e8e ca3d 4399 2c3e ca1c 34be
000000e0: 614f aebe 3044 07bf 24cd e4bd 5cfc 13be
000000f0: b0a0 01bd e41b e8bd 0196 163c f888 babd
00000100: 7e2b d63e 0934 9ebe 80f1 b33b 6ca5 81be
00000110: d72b 9d3e 5c84 0bbf a3b1 023f 7ee8 233e
00000120: 3215 86be de34 b0be b088 ecbc e067 4ebd
00000130: a51f 9f3e 0cc5 04bf 5cb0 acbe 822c f6bd
00000140: c48b ccbd 1d83 2fbc 3e07 253e 285a 273d
00000150: bfa7 803e a168 993e abf5 253e 6117 b23e
00000160: 350a 7a3e 849b e43d aa42 90be d35d cf3e
00000170: 9aee 433e d402 4cbe b03f 5dbc 356e 023f
00000180: 1117 4bbf 3497 12bf 291c d73e e0e7 66bd
00000190: b385 173e ef28 a53e 868b ca3e 3260 083e
000001a0: 0e00 293e 9a6c 9dbe 8033 a73c 3d4a c03e
000001b0: f8eb 7c3d 26bb acbe 48a6 44bf a4e0 fc3d
000001c0: b1c0 bbbd 6f2b f4bd 3efb 6d3e ac61 86bd
000001d0: 0a0e 6fbe d4b8 f4be 2ccc 453f 5ae0 263e
000001e0: da43 4fbf 91ef 093e 5666 593e 6853 523d
000001f0: f60f 3abe 4e6e 75bf 4fe2 8d3c ca65 89bf
00000200: d0f9 88bf e31d ddbe bc5b a93d 6412 aabd
00000210: e1a3 cabe 937b c8be 3671 473e dbe3 4cbe
00000220: 006e b3bc 9621 10bf 2256 343e a767 813e
00000230: 938b d93e 2e18 4b3e dd16 a0be 5c4a 9c3d
00000240: fca5 5abe cbe1 923e fe7e 0e3e dc2d 9d3d
00000250: c3f7 6cbe 0a17 cdbd 8ab8 3f3e 3d14 c13e
00000260: 1a98 e0be f655 893e e275 37be 5aae 733e
00000270: a0a3 ddbc 56f4 ccbd abb0 e23e 19ab 12bd
00000280: cfc4 b1be 9282 2dbd 443c c83d 6ff2 a63e
00000290: 26d5 a53e 46d0 9b3e 1579 44bb 6e4d 093e
000002a0: 2ee0 c73e 70c9 ad3e 3843 d8bd aab7 73be
000002b0: 2fd3 afbe 0c19 913e 3ff1 963c 7a86 793e
000002c0: ee90 b43e d5f0 bf3e 4c76 cdbe 6200 2cbe
000002d0: 07d2 08bd 934d 66be a5f4 92bd f20d 05be
000002e0: 730c 943e 2505 d5bc 700f c5bd 3f2a 6ebe
000002f0: cdd5 c83e 4a7a 7c3e ea94 a53e 8642 05be
00000300: 3780 a8bc 8af9 c43d 5e3c 323e ee9e b5be
00000310: 0d52 a23d 2b4e fd3d 6ce2 063f b1fb a63e
00000320: 1fd3 243e f488 1ebe c784 d33e bc21 ed3d
00000330: f0ad e53c 0718 bebe f30d 8dbe 43af 06bf
00000340: 6b84 d53c c3ad adbd a236 6c3e b191 d63e
00000350: b686 fa3e b734 6c3d b3c9 f0be 8ede 96be
00000360: 5a1a 393f bc01 c83e b174 5bbe d4e4 dabd
00000370: b720 b73e 5a89 833e 5e11 7a3c cb30 b1bd
00000380: 2eac e3be 0041 513e 7535 cc3e f815 6cbd
00000390: c6c6 6f3e 4814 57bd 8fde ba3e f98b b3be
000003a0: f3ff 48be 0f26 843e d6b8 0c3e a486 863d
000003b0: ed3f be3e 9c58 623e 3829 d4be 74e9 49be
000003c0: 6038 98bd c547 a83e 6a70 7c3e 76bf 38be
000003d0: 309a 63bd 5676 4f3e 2013 fbbc 6754 c63e
000003e0: a4dc e53d b0c7 bdbe 17ff ac3e 5a5f 6dbe
000003f0: 8c69 9f3d 95ea d9be fc1e 86be 2ab3 83be
0.032062486 -0.051969733 -0.043031067 -0.41701686 -0.0038424553 0.18071237 0.16065529 0.39485952
0.031814482 0.39684328 0.30863258 -0.092877686 -0.0377886 -0.3895088 -0.42398345 -0.4359863
-0.30196413 0.35798618 0.37270215 0.29758504 -0.012928927 -0.25097528 0.16384475 0.3909754
0.20465195 0.31840143 -0.060780615 0.17605767 0.067741364 -0.24653469 0.41355288 0.09324365
0.2000469 -0.04490855 -0.16283092 0.4237652 0.32499132 0.46504313 -0.48628962 -0.16914052
-0.015937299 0.36352822 -0.30756497 -0.07176629 0.33474842 0.24126439 -0.18804498 0.015527543
0.13665906 0.18199348 -0.001974851 -0.3249149 -0.7939526 0.098904714 0.1685534 -0.17589107
-0.34044936 -0.5283842 -0.1117194 -0.14451736 -0.031647384 -0.11333445 0.009191037 -0.09108156
0.41830057 -0.30899075 0.0054914355 -0.2532152 0.3069751 -0.5449884 0.510523 0.16006657
-0.26188046 -0.34415334 -0.028873771 -0.05039203 0.3107883 -0.5186317 -0.33728302 -0.12020208
-0.09987596 -0.010712412 0.16116044 0.040857464 0.2512798 0.29962638 0.16206996 0.34783462
0.24417956 0.11162475 -0.2817586 0.4050127 0.19133988 -0.19922954 -0.013503954 0.5094941
-0.7933207 -0.5726197 0.42013672 -0.056373477 0.14797096 0.32257792 0.39559573 0.13317946
0.16503927 -0.3074692 0.0204103 0.3755664 0.061748475 -0.33736533 -0.76816225 0.12347534
-0.09167612 -0.11922347 0.23240373 -0.06561598 -0.23345199 -0.47797263 0.77264667 0.16296521
-0.8096291 0.13470294 0.21230444 0.051349074 -0.18170151 -0.95871437 0.017319826 -1.0734189
-1.0701237 -0.43186864 0.0826945 -0.08304289 -0.39578155 -0.3915678 0.1947678 -0.20008795
-0.021903038 -0.5630125 0.17610982 0.25274393 0.424893 0.19833443 -0.31267443 0.076313704
-0.2135238 0.2868789 0.13915631 0.076747626 -0.23141389 -0.1001416 0.1872274 0.37710753
-0.43866044 0.26823395 -0.17916062 0.23796979 -0.027055562 -0.10007541 0.44275412 -0.035807703
-0.34720466 -0.04236085 0.0977712 0.32606837 0.32389182 0.30432338 -0.0029979397 0.13408443
0.39038223 0.33942747 -0.10559696 -0.23800531 -0.34340808 0.28339422 0.018425582 0.24367705
0.35266823 0.37488428 -0.40129316 -0.16797021 -0.033403423 -0.2249053 -0.071755685 -0.12993601
0.28915748 -0.02600343 -0.09622085 -0.23258303 0.39225617 0.24656025 0.32340175 -0.13013658
-0.02056895 0.09617908 0.17405841 -0.35472816 0.07925806 0.12368425 0.5268924 0.326139
0.16096161 -0.15481931 0.4131224 0.115787 0.028037041 -0.37127706 -0.27549705 -0.5261118
0.026064118 -0.08480408 0.23067716 0.4190803 0.489309 0.05766746 -0.47028884 -0.2946667
0.72305834 0.39063823 -0.21431233 -0.10688177 0.35767147 0.25690728 0.01526293 -0.08651885
-0.444673 0.20434952 0.39884534 -0.05763814 0.2341567 -0.052509576 0.36497924 -0.35067728
-0.19628887 0.25810286 0.13742384 0.065686494 0.37158147 0.22104114 -0.41437697 -0.19717962
-0.07432628 0.32867256 0.24652258 -0.18041787 -0.055566967 0.20259985 -0.030648768 0.3873627
0.112237245 -0.37066412 0.33788368 -0.23180905 0.07783803 -0.42561784 -0.26195514 -0.2572263

sequential_1/dense_4/MatMul f4 [1, 16]
00000000: 70c5 e2be 6daf 00bf 5285 2d3f e90d 013f
00000010: 5931 21bf a9d1 d03e 5191 9cbf e11f c63f
00000020: d729 4bbf ed17 42be 762c 013f 4ec1 cfbe
00000030: 110c 93be 3c36 3e3f 4b27 4cbd 0a75 e7be
-0.44291258 -0.5026768 0.67781556 0.5041185 -0.62965924 0.40784958 -1.2231847 1.5478479
-0.7936072 -0.1895444 0.50458467 -0.40577167 -0.28720143 0.74301505 -0.04984216 -0.4520648
