Model/sine_model.tflite (tflite, 3192 bytes, 5 tensors)

sequential_1/dense_3/BiasAdd/ReadVariableOp f4 [16]
0	0x3e148b2d	0.14506216
1	0xbf12681b	-0.571901
2	0x3f474733	0.77843016
3	0x3e394bb9	0.18095292
4	0x3edb9da5	0.4289371
5	0x3e9069a7	0.28205606
6	0x3e153707	0.14571773
7	0x3e7f81d2	0.24951866
8	0xbe475acc	-0.1946823
9	0x3e39d5a9	0.18147911
10	0x3e85cfad	0.26135007
11	0xbe62b86b	-0.22140662
12	0x3ec11f23	0.37719068
13	0xbcde5725	-0.027141163
14	0x00000000	0.0
15	0x3e983c57	0.29733536

sequential_1/dense_2/BiasAdd/ReadVariableOp f4 [16]
0	0x3f2e02d5	0.6797307
1	0x3da4ea12	0.08052458
2	0xbf8471ff	-1.0347289
3	0x00000000	0.0
4	0xbe22c999	-0.15897216
5	0x00000000	0.0
6	0x3f409241	0.75223166
7	0xbf5f321a	-0.87185824
8	0xbc1ea945	-0.009683912
9	0x00000000	0.0
10	0x00000000	0.0
11	0x00000000	0.0
12	0x00000000	0.0
13	0x00000000	0.0
14	0x00000000	0.0
15	0xbf045544	-0.51692605

sequential_1/dense_2/MatMul f4 [16, 1]
0	0x3e5965b2	0.212302
1	0x3eb3c622	0.351121
2	0x3ebe5e69	0.37181404
3	0xbeca766c	-0.39543474
4	0x3e92546a	0.28580028
5	0xbf106bd0	-0.5641451
6	0x3e1ebc11	0.15501429
7	0x3edc246c	0.42996538
8	0x3eec7a68	0.4618714
9	0xbe2128a0	-0.15738153
10	0xbea741bf	-0.32667348
11	0xbccdca00	-0.025120735
12	0xbd2901b0	-0.041261375
13	0xbeb096da	-0.3449009
14	0xbde8cd30	-0.113672614
15	0x3e651a45	0.22373302

sequential_1/dense_3/MatMul f4 [16, 16]
0	0x3e850d5f	0.25986764
1	0x3d1a2b1f	0.03763878
2	0x3e1f37bc	0.15548605
3	0x3c4b8a20	0.012423068
4	0xbec9d829	-0.3942273
5	0x3e1691d6	0.1470407
6	0x3bc40306	0.0059818057
7	0x3dc0d56b	0.09415706
8	0x3e798995	0.2436889
9	0xbe89e78e	-0.26934475
10	0xbe59c81e	-0.21267745
11	0x3e334232	0.1750572
12	0xbeafd9da	-0.34345895
13	0x3e93923f	0.28822514
14	0x3dcb023c	0.099125355
15	0xbf4387c3	-0.7637903
16	0xbe9a82f1	-0.30178025
17	0xbd103c21	-0.035213593
18	0x3ef75cd8	0.48313022
19	0xbec35e59	-0.3815792
20	0x3cf37342	0.029718045
21	0xbe1a48b6	-0.150668
22	0xbc18f31e	-0.009335307
23	0x3f04e271	0.5190802
24	0x3e580cd6	0.21098647
25	0xbe02125a	-0.12702313
26	0xbea80373	-0.32815132
27	0x3ecf0f7b	0.40441498
28	0x3ea3bdc5	0.3198072
29	0xbea003d7	-0.3125293
30	0x3d4b8ee8	0.049696833
31	0x3e68f450	0.22749448
32	0x3f19f694	0.60141873
33	0xbd6223be	-0.055209868
34	0xbec29f3e	-0.38012117
35	0xbcd080d0	-0.025452048
36	0xbed39d49	-0.41330937
37	0x3e145442	0.14485267
38	0x3f12a52a	0.5728327
39	0xbf40c93d	-0.75307065
40	0xbd56bbc7	-0.052425172
41	0x3d9dcabc	0.07704684
42	0xbdb9604c	-0.0905157
43	0x3eae8bad	0.3409094
44	0xbd5d18d0	-0.05397874
45	0xbed4c82c	-0.4155897
46	0x3c9fb770	0.01949665
47	0xbfac8ea0	-1.3481026
48	0x3e8a15bf	0.26969716
49	0x3e43e2e3	0.19129519
50	0xbeb49c3c	-0.35275447
51	0x3e7230b6	0.23651394
52	0x3e7dea90	0.2479651
53	0xbe916344	-0.28396046
54	0xbd870e3e	-0.06594513
55	0xbe77d3ef	-0.2420194
56	0x3eb948ee	0.36188453
57	0xbd47d020	-0.048782468
58	0x3ed321fb	0.41236863
59	0x3d1b2500	0.037877083
60	0xbec1475c	-0.37749755
61	0x3ed40b29	0.41414765
62	0x3d0b8598	0.03406295
63	0xbd2fa191	-0.04287869
64	0x3ea04ff6	0.31311005
65	0xbf1bcd67	-0.60860294
66	0xbda831f4	-0.08212653
67	0xbc3964c0	-0.011315525
68	0xbf01fa78	-0.5077281
69	0x3ed54fd1	0.41662458
70	0x3e2d0d9f	0.16899727
71	0xbf20f99e	-0.62880886
72	0xbf12dc79	-0.57367665
73	0x3ecf173b	0.4044741
74	0xbd4c25d0	-0.04984075
75	0xbda816dc	-0.08207485
76	0x3e8d39e1	0.2758322
77	0xbe0b155c	-0.13582367
78	0xbdc395f8	-0.09550089
79	0x3eb3c567	0.35111544
80	0xbd04b56c	-0.03239958
81	0x3a88a5d2	0.0010425395
82	0xbf0bc391	-0.54595286
83	0xbe9d97b2	-0.30779797
84	0xbe8ae67e	-0.27128977
85	0x3e16d77a	0.14730635
86	0x3e3c7f6a	0.1840798
87	0x3e17b4dd	0.14815088
88	0x3eb2e73b	0.3494204
89	0xbec904f9	-0.39261606
90	0xbde05d4c	-0.10955295
91	0x3ea3b379	0.31972864
92	0x3d46a6d8	0.04849896
93	0xbe57e39a	-0.21082917
94	0x3e8772ed	0.2645487
95	0xbe0ed65e	-0.13948962
96	0x3e3cc9cb	0.18436353
97	0x3e9070f5	0.2821118
98	0x3d62e2d1	0.05539209
99	0x3ec876dd	0.39153185
100	0x3ca50b2f	0.020146934
101	0x3d358a48	0.04432133
102	0x3ecb39c0	0.39692497
103	0xbe3d18a9	-0.18466438
104	0xbd0514a3	-0.032490384
105	0xbb55da80	-0.0032631457
106	0x3ea4533d	0.32094756
107	0xbd20b5d8	-0.03923592
108	0x3e703f8e	0.23461744
109	0xbdd0466c	-0.10169682
110	0x3ed1e959	0.40998343
111	0xbf00d75a	-0.503286
112	0xbe057857	-0.13034187
113	0x3ea5c4a5	0.3237659
114	0xbddd2513	-0.10798087
115	0xbe3f32c1	-0.18671705
116	0x3ea384f8	0.31937385
117	0x3ec876c9	0.39153126
118	0xbc573aab	-0.013136546
119	0xbdaec0d7	-0.08532875
120	0x3d8e42cb	0.069463335
121	0x3e9e1799	0.3087738
122	0xbc28aac0	-0.010294616
123	0xbe29b100	-0.16571426
124	0xbe33a07c	-0.17541689
125	0x3e9894f7	0.2980115
126	0xbe528608	-0.20558941
127	0xbef796b6	-0.4835717
128	0xbcdbb529	-0.026819782
129	0x3e75f4f3	0.24019222
130	0x3e5a1873	0.21298389
131	0xbe93f1d6	-0.28895444
132	0x3e3b53da	0.18293706
133	0x3c9e9090	0.019356042
134	0x3e8262b2	0.25465924
135	0xbe21cfe8	-0.15801966
136	0xbda6a5f2	-0.0813712
137	0x3e15f4d2	0.14644173
138	0x3e6eaf3a	0.23309031
139	0xbe8744e8	-0.2641976
140	0xbe6dc6ae	-0.23220322
141	0x3d0ec0e0	0.03485191
142	0xbea35284	-0.31898892
143	0x3e3d3fc8	0.18481362
144	0x3edabace	0.42720646
145	0xbed4eac6	-0.41585368
146	0x3d4089f6	0.04700657
147	0xbc868fe0	-0.016426027
148	0xbe5a7ede	-0.21337458
149	0x3e6d8072	0.23193529
150	0x3e57f09c	0.21087879
151	0x3e3a62fe	0.18201825
152	0x3d62fde8	0.055417925
153	0xbd7312c0	-0.059344053
154	0xbe74e7b1	-0.23916508
155	0x3cd7f5c0	0.0263623
156	0x3e81a197	0.25318596
157	0xbe07c6a8	-0.13259375
158	0x3e41e0fe	0.18933484
159	0xbeb5352d	-0.35392132
160	0x3e0b8368	0.13624346
161	0x3e0d9c16	0.13829073
162	0xbe9c54d9	-0.30533484
163	0x3e6c06c2	0.23049453
164	0x3da07b8b	0.07836064
165	0xbd6ca3c8	-0.05777338
166	0x3ed8fb35	0.42379156
167	0x3da3b83b	0.079941235
168	0xbe559d77	-0.2086085
169	0xbed001fe	-0.4062652
170	0xbed279ef	-0.41108653
171	0xbecdb72e	-0.40178818
172	0xbe9982c6	-0.29982585
173	0xbacbec00	-0.0015558004
174	0xbe30074e	-0.17190287
175	0x3d82c01e	0.063843
176	0x3eb2f0cb	0.34949335
177	0xbe5fcc14	-0.21855193
178	0x3da1a336	0.07892458
179	0xbe384cd2	-0.17998055
180	0xbd1d1a66	-0.038355254
181	0x3e9f5849	0.31122044
182	0x3b62d874	0.003461388
183	0x3e6a605d	0.22888322
184	0x3e79adf6	0.24382767
185	0x3e8c8c67	0.27450868
186	0xbeac61b4	-0.33668292
187	0x3ea7f993	0.32807598
188	0x3caab790	0.020839483
189	0xbe9f625e	-0.31129736
190	0x3e177eca	0.1479446
191	0x3ecf6a50	0.40510798
192	0xbe3c9ef0	-0.18420005
193	0xbf210fa1	-0.6291447
194	0x3ec4575f	0.3834791
195	0x3eb8603d	0.36010924
196	0x3eb5ee04	0.35533154
197	0xbed12c34	-0.40854037
198	0x3ec0cde0	0.3765707
199	0xbe41ebf4	-0.18937665
200	0xbf279f1a	-0.65477145
201	0xbd827d5c	-0.06371567
202	0x3e93aac7	0.2884123
203	0xbed4272c	-0.41436136
204	0x3e0b714a	0.13617435
205	0xbe5298ec	-0.20566148
206	0x3ed2f655	0.4120356
207	0x3ec10e48	0.37706208
208	0x3e97883b	0.29596123
209	0xbe8f6651	-0.2800775
210	0xbd44c691	-0.04804093
211	0xbcfe0340	-0.03100741
212	0xbe891692	-0.26775032
213	0x3ebbcbed	0.3667902
214	0xbe51b7e2	-0.20480302
215	0xbeabd4d7	-0.3356082
216	0xbe373eaf	-0.17895006
217	0x3e903ccb	0.2817138
218	0xbe754a9c	-0.23954242
219	0xbe936668	-0.28789067
220	0x3ea606ad	0.32426968
221	0xbe892c3f	-0.2679157
222	0xbe33d4b8	-0.17561615
223	0x3da3a874	0.07991114
224	0x3e72bd06	0.23704919
225	0xbe2b2e36	-0.16716847
226	0x3e1b5272	0.15168169
227	0xbe6e42fb	-0.23267739
228	0x3e1d27ea	0.15347257
229	0x3d8709bc	0.065936536
230	0xbea6d264	-0.3258239
231	0xbd62bd40	-0.055356264
232	0xbece9f43	-0.40355882
233	0x3ca40430	0.020021528
234	0xbe94c8e4	-0.29059517
235	0xbea18438	-0.31546187
236	0x3c6b4260	0.014359087
237	0x3e6228e2	0.22085908
238	0x3b32b100	0.0027266145
239	0xbe0d7ec2	-0.13817886
240	0x3def0821	0.11671472
241	0x3e3d9754	0.18514758
242	0x3e75af91	0.23992755
243	0x3e6e6c02	0.23283389
244	0x3e97db96	0.29659718
245	0xbe98d91c	-0.2985314
246	0x3ead9f0f	0.33910415
247	0xbedc6dea	-0.43052608
248	0xbe925819	-0.28582838
249	0x3d92c7ec	0.07167038
250	0x3c3f4ce0	0.011676043
251	0x3ea33df5	0.31883207
252	0xbdfc54f0	-0.12320888
253	0x3d761018	0.060073942
254	0xbed02070	-0.40649748
255	0xbf2be3e8	-0.6714463

sequential_1/dense_4/MatMul f4 [1, 16]
0	0xbde055b4	-0.109538466
1	0x3f83ff08	1.0312204
2	0x3fd246e6	1.6427886
3	0xbe9f516d	-0.3111681
4	0xbf3a62c6	-0.72806966
5	0xbe8d0a41	-0.27546886
6	0xbdc031c1	-0.0938449
7	0xbebcd042	-0.36877638
8	0x3e621a73	0.22080402
9	0xbe6d10bc	-0.23150915
10	0xbee9639c	-0.45583808
11	0x3ea6e76e	0.32598442
12	0xbf8cb81c	-1.0993686
13	0x3ea0c57d	0.31400672
14	0x3e210778	0.15725505
15	0xbf1f2841	-0.621708
