Model/sine_model_quantized.tflite (tflite, 3040 bytes, 3 tensors)

sequential_1/dense_4/MatMul i1 [1, 16] scale=0.012935344 zero_point=0
-0.10348275 1.0348275 1.6427886 -0.31044826 -0.7243793 -0.27164224 -0.09054741 -0.375125
0.21990085 -0.23283619 -0.45273703 0.3233836 -1.0995042 0.31044826 0.15522413 -0.6208965
00000000: f850 7fe8 c8eb f9e3 11ee dd19 ab18 0cd0

sequential_1/dense_3/MatMul i1 [16, 16] scale=0.010614981 zero_point=0
0.25475955 0.042459924 0.15922472 0.010614981 -0.3927543 0.14860973 0.010614981 0.09553483
0.24414456 -0.2653745 -0.21229962 0.1698397 -0.3396794 0.2866045 0.09553483 -0.76427865
-0.29721946 -0.031844944 0.48828912 -0.38213933 0.031844944 -0.14860973 -0.010614981 0.5201341
0.21229962 -0.12737978 -0.3290644 0.40336928 0.31844944 -0.30783445 0.053074904 0.2229146
0.6050539 -0.053074904 -0.38213933 -0.021229962 -0.41398427 0.14860973 0.573209 -0.75366366
-0.053074904 0.074304864 -0.09553483 0.3396794 -0.053074904 -0.41398427 0.021229962 -1.3481026
0.2653745 0.19106966 -0.35029438 0.23352958 0.24414456 -0.2866045 -0.06368989 -0.24414456
0.36090934 -0.053074904 0.41398427 0.042459924 -0.38213933 0.41398427 0.031844944 -0.042459924
0.30783445 -0.6050539 -0.08491985 -0.010614981 -0.5095191 0.41398427 0.1698397 -0.6262839
-0.573209 0.40336928 -0.053074904 -0.08491985 0.2759895 -0.13799475 -0.09553483 0.35029438
-0.031844944 0.0 -0.541364 -0.30783445 -0.2759895 0.14860973 0.18045467 0.14860973
0.35029438 -0.3927543 -0.10614981 0.31844944 0.053074904 -0.21229962 0.2653745 -0.13799475
0.18045467 0.2866045 0.053074904 0.3927543 0.021229962 0.042459924 0.3927543 -0.18045467
-0.031844944 0.0 0.31844944 -0.042459924 0.23352958 -0.10614981 0.41398427 -0.4989041
-0.12737978 0.3290644 -0.10614981 -0.19106966 0.31844944 0.3927543 -0.010614981 -0.08491985
0.074304864 0.30783445 -0.010614981 -0.1698397 -0.18045467 0.29721946 -0.20168464 -0.48828912
-0.031844944 0.24414456 0.21229962 -0.2866045 0.18045467 0.021229962 0.25475955 -0.15922472
-0.08491985 0.14860973 0.23352958 -0.2653745 -0.23352958 0.031844944 -0.31844944 0.18045467
0.42459923 -0.41398427 0.042459924 -0.021229962 -0.21229962 0.23352958 0.21229962 0.18045467
0.053074904 -0.06368989 -0.24414456 0.021229962 0.25475955 -0.12737978 0.19106966 -0.35029438
0.13799475 0.13799475 -0.30783445 0.23352958 0.074304864 -0.053074904 0.42459923 0.08491985
-0.21229962 -0.40336928 -0.41398427 -0.40336928 -0.29721946 0.0 -0.1698397 0.06368989
0.35029438 -0.2229146 0.074304864 -0.18045467 -0.042459924 0.30783445 0.0 0.23352958
0.24414456 0.2759895 -0.3396794 0.3290644 0.021229962 -0.30783445 0.14860973 0.40336928
-0.18045467 -0.6262839 0.38213933 0.36090934 0.35029438 -0.40336928 0.37152433 -0.19106966
-0.6581288 -0.06368989 0.2866045 -0.41398427 0.13799475 -0.20168464 0.41398427 0.38213933
0.29721946 -0.2759895 -0.053074904 -0.031844944 -0.2653745 0.37152433 -0.20168464 -0.3396794
-0.18045467 0.2866045 -0.24414456 -0.2866045 0.3290644 -0.2653745 -0.18045467 0.08491985
0.23352958 -0.1698397 0.14860973 -0.23352958 0.14860973 0.06368989 -0.3290644 -0.053074904
-0.40336928 0.021229962 -0.2866045 -0.31844944 0.010614981 0.2229146 0.0 -0.13799475
0.11676479 0.18045467 0.24414456 0.23352958 0.29721946 -0.29721946 0.3396794 -0.43521422
-0.2866045 0.074304864 0.010614981 0.31844944 -0.12737978 0.06368989 -0.40336928 -0.6687438
00000000: 1804 0f01 db0e 0109 17e7 ec10 e01b 09b8
00000010: e4fd 2edc 03f2 ff31 14f4 e126 1ee3 0515
00000020: 39fb dcfe d90e 36b9 fb07 f720 fbd9 0281
00000030: 1912 df16 17e5 fae9 22fb 2704 dc27 03fc
00000040: 1dc7 f8ff d027 10c5 ca26 fbf8 1af3 f721
00000050: fd00 cde3 e60e 110e 21db f61e 05ec 19f3
00000060: 111b 0525 0204 25ef fd00 1efc 16f6 27d1
00000070: f41f f6ee 1e25 fff8 071d fff0 ef1c edd2
00000080: fd17 14e5 1102 18f1 f80e 16e7 ea03 e211
00000090: 28d9 04fe ec16 1411 05fa e902 18f4 12df
000000a0: 0d0d e316 07fb 2808 ecda d9da e400 f006
000000b0: 21eb 07ef fc1d 0016 171a e01f 02e3 0e26
000000c0: efc5 2422 21da 23ee c2fa 1bd9 0ded 2724
000000d0: 1ce6 fbfd e723 ede0 ef1b e9e5 1fe7 ef08
000000e0: 16f0 0eea 0e06 e1fb da02 e5e2 0115 00f3
000000f0: 0b11 1716 1ce4 20d7 e507 011e f406 dac1

sequential_1/dense_2/MatMul i1 [16, 1] scale=0.0044420874 zero_point=0
0.2132202 0.3509249 0.37313533 -0.39534578 0.2842936 -0.5641451 0.15547305 0.43088248
0.4619771 -0.15547305 -0.32871446 -0.026652524 -0.039978787 -0.3464828 -0.11549427 0.22210437
00000000: 304f 54a7 4081 2361 68dd b6fa f7b2 e632
